…
dict_keys(['epoch', 'lossMIN', 'state_dict', 'teacher', 'optimizer', 'scheduler'])
Loading teacher from checkpoint...
Removing key head.weight from pretrained checkpoint
Removing key head.bias from pretrained checkpoint
Loaded with msg: _IncompatibleKeys(missing_keys=['head.weight', 'head.bias'], unexpected_keys=['projector.weight', 'projector.bias', 'omni_heads.0.weight', 'omni_heads.0.bias', 'omni_heads.1.weight', 'omni_heads.1.bias', 'omni_heads.2.weight', 'omni_heads.2.bias', 'omni_heads.3.weight', 'omni_heads.3.bias', 'omni_heads.4.weight', 'omni_heads.4.bias', 'omni_heads.5.weight', 'omni_heads.5.bias'])
SwinTransformer(
  (patch_embed): PatchEmbed(
    (proj): Conv2d(3, 192, kernel_size=(4, 4), stride=(4, 4))
    (norm): LayerNorm((192,), eps=1e-05, elementwise_affine=True)
  )
  (pos_drop): Dropout(p=0.0, inplace=False)
  (layers): Sequential(
    (0): BasicLayer(
      dim=192, input_resolution=(192, 192), depth=2
      (blocks): ModuleList(
        (0): SwinTransformerBlock(
          (norm1): LayerNorm((192,), eps=1e-05, elementwise_affine=True)
          (attn): WindowAttention(
            (qkv): Linear(in_features=192, out_features=576, bias=True)
            (attn_drop): Dropout(p=0.0, inplace=False)
            (proj): Linear(in_features=192, out_features=192, bias=True)
            (proj_drop): Dropout(p=0.0, inplace=False)
            (softmax): Softmax(dim=-1)
          )
          (drop_path): Identity()
          (norm2): LayerNorm((192,), eps=1e-05, elementwise_affine=True)
          (mlp): Mlp(
            (fc1): Linear(in_features=192, out_features=768, bias=True)
            (act): GELU(approximate='none')
            (drop1): Dropout(p=0.0, inplace=False)
            (fc2): Linear(in_features=768, out_features=192, bias=True)
            (drop2): Dropout(p=0.0, inplace=False)
          )
        )
        (1): SwinTransformerBlock(
          (norm1): LayerNorm((192,), eps=1e-05, elementwise_affine=True)
          (attn): WindowAttention(
            (qkv): Linear(in_features=192, out_features=576, bias=True)
            (attn_drop): Dropout(p=0.0, inplace=False)
            (proj): Linear(in_features=192, out_features=192, bias=True)
            (proj_drop): Dropout(p=0.0, inplace=False)
            (softmax): Softmax(dim=-1)
          )
          (drop_path): DropPath()
          (norm2): LayerNorm((192,), eps=1e-05, elementwise_affine=True)
          (mlp): Mlp(
            (fc1): Linear(in_features=192, out_features=768, bias=True)
            (act): GELU(approximate='none')
            (drop1): Dropout(p=0.0, inplace=False)
            (fc2): Linear(in_features=768, out_features=192, bias=True)
            (drop2): Dropout(p=0.0, inplace=False)
          )
        )
      )
      (downsample): PatchMerging(
        input_resolution=(192, 192), dim=192
        (reduction): Linear(in_features=768, out_features=384, bias=False)
        (norm): LayerNorm((768,), eps=1e-05, elementwise_affine=True)
      )
    )
    (1): BasicLayer(
      dim=384, input_resolution=(96, 96), depth=2
      (blocks): ModuleList(
        (0-1): 2 x SwinTransformerBlock(
          (norm1): LayerNorm((384,), eps=1e-05, elementwise_affine=True)
          (attn): WindowAttention(
            (qkv): Linear(in_features=384, out_features=1152, bias=True)
            (attn_drop): Dropout(p=0.0, inplace=False)
            (proj): Linear(in_features=384, out_features=384, bias=True)
            (proj_drop): Dropout(p=0.0, inplace=False)
            (softmax): Softmax(dim=-1)
          )
          (drop_path): DropPath()
          (norm2): LayerNorm((384,), eps=1e-05, elementwise_affine=True)
          (mlp): Mlp(
            (fc1): Linear(in_features=384, out_features=1536, bias=True)
            (act): GELU(approximate='none')
            (drop1): Dropout(p=0.0, inplace=False)
            (fc2): Linear(in_features=1536, out_features=384, bias=True)
            (drop2): Dropout(p=0.0, inplace=False)
          )
        )
      )
      (downsample): PatchMerging(
        input_resolution=(96, 96), dim=384
        (reduction): Linear(in_features=1536, out_features=768, bias=False)
        (norm): LayerNorm((1536,), eps=1e-05, elementwise_affine=True)
      )
    )
    (2): BasicLayer(
      dim=768, input_resolution=(48, 48), depth=18
      (blocks): ModuleList(
        (0-17): 18 x SwinTransformerBlock(
          (norm1): LayerNorm((768,), eps=1e-05, elementwise_affine=True)
          (attn): WindowAttention(
            (qkv): Linear(in_features=768, out_features=2304, bias=True)
            (attn_drop): Dropout(p=0.0, inplace=False)
            (proj): Linear(in_features=768, out_features=768, bias=True)
            (proj_drop): Dropout(p=0.0, inplace=False)
            (softmax): Softmax(dim=-1)
          )
          (drop_path): DropPath()
          (norm2): LayerNorm((768,), eps=1e-05, elementwise_affine=True)
          (mlp): Mlp(
            (fc1): Linear(in_features=768, out_features=3072, bias=True)
            (act): GELU(approximate='none')
            (drop1): Dropout(p=0.0, inplace=False)
            (fc2): Linear(in_features=3072, out_features=768, bias=True)
            (drop2): Dropout(p=0.0, inplace=False)
          )
        )
      )
      (downsample): PatchMerging(
        input_resolution=(48, 48), dim=768
        (reduction): Linear(in_features=3072, out_features=1536, bias=False)
        (norm): LayerNorm((3072,), eps=1e-05, elementwise_affine=True)
      )
    )
    (3): BasicLayer(
      dim=1536, input_resolution=(24, 24), depth=2
      (blocks): ModuleList(
        (0-1): 2 x SwinTransformerBlock(
          (norm1): LayerNorm((1536,), eps=1e-05, elementwise_affine=True)
          (attn): WindowAttention(
            (qkv): Linear(in_features=1536, out_features=4608, bias=True)
            (attn_drop): Dropout(p=0.0, inplace=False)
            (proj): Linear(in_features=1536, out_features=1536, bias=True)
            (proj_drop): Dropout(p=0.0, inplace=False)
            (softmax): Softmax(dim=-1)
          )
          (drop_path): DropPath()
          (norm2): LayerNorm((1536,), eps=1e-05, elementwise_affine=True)
          (mlp): Mlp(
            (fc1): Linear(in_features=1536, out_features=6144, bias=True)
            (act): GELU(approximate='none')
            (drop1): Dropout(p=0.0, inplace=False)
            (fc2): Linear(in_features=6144, out_features=1536, bias=True)
            (drop2): Dropout(p=0.0, inplace=False)
          )
        )
      )
    )
  )
  (norm): LayerNorm((1536,), eps=1e-05, elementwise_affine=True)
  (avgpool): AdaptiveAvgPool1d(output_size=1)
  (head): Linear(in_features=1536, out_features=19, bias=True)
)
/home/pcl/anaconda3/envs/arktest2/lib/python3.8/site-packages/timm/utils/cuda.py:40: FutureWarning: `torch.cuda.amp.GradScaler(args...)` is deprecated. Please use `torch.amp.GradScaler('cuda', args...)` instead.
  self._scaler = torch.cuda.amp.GradScaler()
Epoch: [0][  0/178]	Time  1.206 ( 1.206)	Loss 7.0746e-01 (7.0746e-01)
Epoch: [0][ 50/178]	Time  0.393 ( 0.385)	Loss 7.8653e-02 (1.4795e-01)
…
